…
P_USR_DIR,'augment_final.h5'))\n","#model.save_weights(os.path.join(EXP_USR_DIR, \"model_weights.h5\"))\n","\n","# Save History for lazy evaluation\n","with open(os.path.join(EXP_USR_DIR,'augment_history'), 'wb') as file:\n","  pickle.dump(history.history, file)"],"execution_count":0,"outputs":[{"output_type":"stream","text":["Model: \"Nvidia_Model_Aug\"\n","_________________________________________________________________\n","Layer (type)                 Output Shape              Param #   \n","=================================================================\n","conv2d_50 (Conv2D)           (None, 31, 98, 24)        1824      \n","_________________________________________________________________\n","conv2d_51 (Conv2D)           (None, 14, 47, 36)        21636     \n","_________________________________________________________________\n","conv2d_52 (Conv2D)           (None, 5, 22, 48)         43248     \n","_________________________________________________________________\n","conv2d_53 (Conv2D)           (None, 3, 20, 64)         27712     \n","_________________________________________________________________\n","conv2d_54 (Conv2D)           (None, 1, 18, 64)         36928     \n","_________________________________________________________________\n","flatten_10 (Flatten)         (None, 1152)              0         \n","_________________________________________________________________\n","dense_35 (Dense)             (None, 100)               115300    \n","_________________________________________________________________\n","dense_36 (Dense)             (None, 50)                5050      \n","_________________________________________________________________\n","dense_37 (Dense)             (None, 10)                510       \n","_________________________________________________________________\n","dense_38 (Dense)             (None, 3)                 33        \n","=================================================================\n","Total params: 252,241\n","Trainable params: 252,241\n","Non-trainable params: 0\n","_________________________________________________________________\n","None\n","Epoch 1/100\n","36/37 [============================>.] - ETA: 0s - loss: 1.0816 - acc: 0.4803\n","Epoch 00001: val_loss improved from inf to 0.78022, savi
…
